mlx_audio/tts/models/chatterbox/conds.safetensors (safetensors, 104176 bytes, 5 tensors)

gen.embedding f4 [1, 192]
0	0xbee05f81	-0.43822864
1	0x3e990e62	0.29893786
2	0xbf19fa0a	-0.60147154
3	0xbeae3bd1	-0.3403001
4	0x3e4fd415	0.20295747
5	0xbeb8a092	-0.36060005
6	0xbffb4ac9	-1.9632198
7	0xbeca621d	-0.3952798
8	0x3fbfeaf2	1.4993575
9	0x3e9c2cab	0.3050283
10	0xbec05421	-0.37564185
11	0xbecca4a6	-0.39969367
12	0x3ba0128a	0.0048850225
13	0x3df7564e	0.12077008
14	0x3f73541b	0.9505021
15	0xbfbbf75b	-1.4684862
16	0x4005ffc9	2.093737
17	0x3f0c90af	0.5490827
18	0x3f251f30	0.64500713
19	0xbebb8170	-0.3662219
20	0x3f99bd18	1.2010832
21	0xbd31e2f6	-0.043429337
22	0xbe630de8	-0.22173274
23	0xbfba1377	-1.453719
24	0xbf2311fe	-0.6369933
25	0xbf5c9074	-0.8615792
26	0xbfaa1004	-1.3286138
27	0x3fdfe3d3	1.7491401
28	0xc00b3488	-2.1750813
29	0xbe8d0f54	-0.27550757
30	0x3f01466a	0.5049807
31	0xbd20d4c2	-0.0392654
32	0x3e890f8d	0.26769677
33	0x3f6ac500	0.9170685
34	0xbeb969f8	-0.3621366
35	0xbfb9612c	-1.448278
36	0xbdc6f388	-0.09714419
37	0xbf9cca08	-1.2249155
38	0x3ec0526b	0.3756288
39	0xbeb1dba2	-0.3473788
40	0x3f0331de	0.51247966
41	0xbf01bc38	-0.50677824
42	0xbfce62d5	-1.6123911
43	0xbedc2e56	-0.43004102
44	0xbf0101d3	-0.5039341
45	0xbf52f79b	-0.82409066
46	0x3fa510e5	1.2895781
47	0x3e3a8ceb	0.18217818
48	0x3d080e9e	0.033217065
49	0xbf04011a	-0.5156418
50	0xbe7faa28	-0.24967253
51	0xbe9734a1	-0.2953234
52	0x4038e14b	2.8887508
53	0x3ddd4925	0.10804967
54	0xbe9e1ed0	-0.30882883
55	0xbddbcda5	-0.10732583
56	0x3f2359b2	0.6380874
57	0xbebf79c5	-0.3739759
58	0xbfc0cd0f	-1.5062579
59	0x3e64c030	0.22338939
60	0xbee686e5	-0.4502479
61	0x3e94d3b6	0.29067773
62	0x3eaa42a9	0.33253983
63	0xbe9bbeac	-0.3041891
64	0xbffdbd2b	-1.9823354
65	0x3e7dbc13	0.24778776
66	0xbedc0216	-0.4297034
67	0x3e9ebb33	0.31002197
68	0xbf858d30	-1.0433712
69	0x3e323fca	0.17407146
70	0xbe884868	-0.26617742
71	0x3ffdf2fc	1.9839778
72	0x3e56e8ce	0.20987245
73	0x3f8a17a5	1.0788466
74	0xbfc12d65	-1.5091978
75	0xbfbd8542	-1.4806292
76	0xbfcb5099	-1.5883971
77	0xbf3a9071	-0.7287665
78	0x3faf110f	1.3677081
79	0x3fb699a9	1.4265643
80	0x3d86f08d	0.0658885
81	0xbf808470	-1.0040417
82	0xbe9a8465	-0.30179134
83	0xbcea1b1b	-0.028577378
84	0xbf89e1c9	-1.0772029
85	0xbfabb0a4	-1.3413281
86	0x3f691f13	0.9106304
87	0xbfc3ee6f	-1.5307139
88	0xbf836873	-1.026625
89	0xc021b1df	-2.5264814
90	0x3f2ffb6d	0.6874302
91	0x3f283bb9	0.6571613
92	0x3f63f720	0.8904896
93	0xbeaf3673	-0.3422123
94	0xbe9fa65b	-0.31181607
95	0xbefb5af3	-0.49092826
96	0x3f888c27	1.0667771
97	0xbe7c1b8d	-0.24619885
98	0x3fa74750	1.3068638
99	0x3f74b0e5	0.9558242
100	0x3ed810b6	0.4220025
101	0xbf861619	-1.0475494
102	0x3ff87ab9	1.9412452
103	0x3f4e8e17	0.8068556
104	0xbf812b42	-1.0091326
105	0xbf9bd848	-1.2175379
106	0x3e823f21	0.2543879
107	0x4009d086	2.1533523
108	0x3ff9a1e0	1.9502525
109	0x3ee5f787	0.4491541
110	0xbeda8083	-0.42676172
111	0xbf02a225	-0.5102866
112	0xbfde8472	-1.7384169
113	0xbf9afd9f	-1.2108649
114	0x3f4e8823	0.8067648
115	0x3ebf7ff4	0.37402308
116	0xbe6132ee	-0.21992084
117	0xbf2fc0fd	-0.6865385
118	0xbf342c3a	-0.70379984
119	0x3f751c5c	0.957464
120	0xbecd160b	-0.4005588
121	0x3e94c286	0.2905466
122	0x3f58542d	0.8450344
123	0xbf3acdde	-0.7297038
124	0xbea62c57	-0.32455704
125	0xbfe131f9	-1.7593375
126	0xbf8954f6	-1.0729053
127	0xbfd1d03c	-1.6391673
128	0xbf268da1	-0.6505986
129	0xbfe9428c	-1.8223433
130	0x3ee149f4	0.44001734
131	0xbf5ce7df	-0.8629131
132	0xbfa100d3	-1.2578377
133	0x3f9cecb4	1.2259736
134	0xbfa3d1a3	-1.2798351
135	0x3ee910a4	0.45520508
136	0x3faccde3	1.3500332
137	0xbf54a8d0	-0.8307009
138	0x3f8aa08b	1.0830244
139	0xbfc37d5d	-1.5272633
140	0x400f07d5	2.234853
141	0x3eac2bed	0.33627263
142	0x3d692a1d	0.056924928
143	0x3ea5b122	0.32361704
144	0xbf82f5a7	-1.0231217
145	0x3f90eabb	1.1321634
146	0x3f4fd83b	0.81189317
147	0x3f3a6ed0	0.72825336
148	0xbf2c340f	-0.67266935
149	0xbfe48635	-1.7853457
150	0xbfd25cdd	-1.643459
151	0xbf905c02	-1.1278079
152	0x3fb5ff09	1.4218456
153	0xbf35e483	-0.71051806
154	0x3f21c437	0.63190025
155	0xbed24cba	-0.41074163
156	0x3e50f849	0.20407213
157	0xbf277b40	-0.6542244
158	0x3f4edd2d	0.8080624
159	0xbed05572	-0.4069019
160	0xbe343483	-0.17598157
161	0x3f954da7	1.1664323
162	0xbdf652f2	-0.12027539
163	0xbf5fa963	-0.8736784
164	0x3f4afdbf	0.79293436
165	0x40069b43	2.1032264
166	0x3cea73aa	0.028619606
167	0xbfe176a1	-1.7614328
168	0xc004313d	-2.0655053
169	0xbf0a3816	-0.5399183
170	0xbecdb9cf	-0.40180823
171	0x3f59104b	0.84790486
172	0x3f7f659a	0.99764407
173	0x3ccf89b7	0.025334222
174	0xbf4340ea	-0.76270926
175	0x3f980375	1.1876055
176	0xbdf31f04	-0.1187115
177	0xbf412ac8	-0.75455904
178	0xbf84f521	-1.0387307
179	0xbee06bdc	-0.4383229
180	0xbeaf0fb7	-0.34191677
181	0xbfaf1e34	-1.3681092
182	0xbdf76efc	-0.120817155
183	0x3f7be169	0.98390824
184	0xbefb5515	-0.4908835
185	0x3f71747d	0.9431837
186	0xbfd007fd	-1.6252438
187	0xbf65e21f	-0.8979816
188	0xbc8c50d6	-0.01712839
189	0xbd9f882d	-0.07789645
190	0x3e510aa8	0.20414221
191	0xbe2bdbf2	-0.16783121

gen.prompt_feat f4 [1, 314, 80]
0	0xc0d825e1	-6.754624
1	0xc0bb77c9	-5.858372
2	0xc0c53f01	-6.163941
3	0xc0d06c1b	-6.5131965
4	0xc0bfd525	-5.9947686
5	0xc0c60c38	-6.1889915
6	0xc0dc2947	-6.8800387
7	0xc0e19f90	-7.050728
8	0xc0ee95f2	-7.455804
9	0xc0d6a01c	-6.7070446
10	0xc0d8bb8e	-6.772895
11	0xc0db1d3f	-6.84732
12	0xc0d2d939	-6.5890164
13	0xc0e167f0	-7.0439377
14	0xc0d1292f	-6.5362773
15	0xc0b4295d	-5.630049
16	0xc0bcfc64	-5.9058094
17	0xc0e9a83f	-7.301788
18	0xc0df8cf7	-6.9859576
19	0xc0ef15fa	-7.4714327
20	0xc10a057e	-8.626341
21	0xc100e767	-8.056495
22	0xc1033760	-8.201019
23	0xc105b1e4	-8.35593
24	0xc113a0fd	-9.226804
25	0xc1170ae5	-9.44016
26	0xc10ad45e	-8.676847
27	0xc10f686e	-8.962996
28	0xc10ddbbf	-8.866149
29	0xc1063513	-8.387958
30	0xc100cb04	-8.049564
31	0xc1090d0f	-8.565688
32	0xc108cc81	-8.549928
33	0xc10502cf	-8.313186
34	0xc10291c7	-8.16059
35	0xc1093b86	-8.577032
36	0xc109429c	-8.578762
37	0xc104f7ca	-8.310495
38	0xc1056bc9	-8.338815
39	0xc1036304	-8.211674
40	0xc10395ef	-8.224105
41	0xc1046178	-8.273796
42	0xc10875d4	-8.528767
43	0xc107e0a1	-8.492341
44	0xc10a2ac0	-8.635437
45	0xc104d467	-8.301856
46	0xc10260ca	-8.14863
47	0xc0e143bb	-7.039518
48	0xc0da8ab7	-6.829433
49	0xc0d43ac0	-6.6321716
50	0xc0f7b81b	-7.741224
51	0xc10721d2	-8.445757
52	0xc1044035	-8.265676
53	0xc100aec6	-8.042669
54	0xc0fe7e46	-7.952914
55	0xc0e50ebd	-7.158049
56	0xc0bf9d2e	-5.987937
57	0xc0b30b92	-5.5951624
58	0xc0bd42c6	-5.914401
59	0xc0aebbfa	-5.4604464
60	0xc0af59e8	-5.479725
61	0xc0c98079	-6.2969327
62	0xc0ade401	-5.4340825
63	0xc0aec702	-5.461793
64	0xc0d6447c	-6.69586
65	0xc0dd155e	-6.9088583
66	0xc0c498ed	-6.1436677
67	0xc0b5574b	-5.666906
68	0xc0b8a156	-5.7696943
69	0xc0ba7541	-5.826813
70	0xc0bb471a	-5.8524294
71	0xc0c23552	-6.069009
72	0xc0b53c4a	-5.6636095
73	0xc0bacbb4	-5.837366
74	0xc0d97d09	-6.796513
75	0xc0fb8157	-7.8595386
76	0xc0f94ccd	-7.790625
77	0xc0eefad7	-7.46812
78	0xc0f4899c	-7.641798
79	0xc0e477aa	-7.1396074
80	0xc09bbffe	-4.8671865
81	0xc0864238	-4.1955833
82	0xc07d2e18	-3.9559383
83	0xc05b1899	-3.4233763
84	0xc04097e3	-3.0092704
85	0xc0413b0a	-3.0192285
86	0xc0695e72	-3.6463895
87	0xc09806a8	-4.7508125
88	0xc0873136	-4.224757
89	0xc084315d	-4.131026
90	0xc0842e69	-4.1306653
91	0xc080eb97	-4.0287585
92	0xc08acde4	-4.337633
93	0xc0991697	-4.7840075
94	0xc070dfd9	-3.7636626
95	0xc06721f3	-3.611447
96	0xc06ecd50	-3.7312813
97	0xc07cc1fb	-3.9493396
98	0xc0792270	-3.892727
99	0xc0651ed5	-3.5800068
100	0xc0584fe8	-3.379877
101	0xc04c5932	-3.192944
102	0xc06c82a9	-3.6954749
103	0xc070af0c	-3.760684
104	0xc06375a4	-3.5540552
105	0xc05c60f9	-3.4434187
106	0xc05dd20b	-3.465945
107	0xc07bacd9	-3.9324248
108	0xc084a3bb	-4.1449866
109	0xc070e11b	-3.7637393
110	0xc05f9c4c	-3.4939146
111	0xc0659a9a	-3.5875611
112	0xc057faa9	-3.374674
113	0xc04eb259	-3.2296355
114	0xc04321ff	-3.04895
115	0xc03bde93	-2.9354599
116	0xc059cdc0	-3.403183
117	0xc06b33f0	-3.675045
118	0xc070b953	-3.7613113
119	0xc0802c84	-4.005434
120	0xc08e258b	-4.442083
121	0xc0901061	-4.5019994
122	0xc09745a2	-4.72725
123	0xc092b3ca	-4.584447
124	0xc098ad03	-4.7711196
125	0xc09a44b7	-4.820888
126	0xc0a0434f	-5.0082164
127	0xc09b6f13	-4.857309
128	0xc093fb3b	-4.624418
129	0xc0862bf6	-4.1928663
130	0xc070b6b0	-3.7611504
131	0xc05ce5e6	-3.451532
132	0xc05e5d92	-3.474461
133	0xc06920ed	-3.6426346
134	0xc075562a	-3.833384
135	0xc075d39b	-3.8410404
136	0xc072b55f	-3.79232
137	0xc08208ff	-4.063598
138	0xc089ac64	-4.302294
139	0xc08aeaad	-4.341147
140	0xc08cd573	-4.401056
141	0xc0931ce8	-4.5972786
142	0xc0968f96	-4.7050276
143	0xc09bcf20	-4.869034
144	0xc0ab4577	-5.3522296
145	0xc0bc4519	-5.883435
146	0xc0aa5894	-5.3233128
147	0xc0aadb8a	-5.339299
148	0xc0b3b9c8	-5.6164284
149	0xc0b92bfe	-5.78662
150	0xc0acf349	-5.404698
151	0xc0b14610	-5.5398026
152	0xc0b78024	-5.734392
153	0xc0bae185	-5.8400292
154	0xc0c30664	-6.09453
155	0xc0cfa3da	-6.4887514
156	0xc0d860ae	-6.7618017
157	0xc0d6ef22	-6.716691
158	0xc0dbe95c	-6.8722363
159	0xc0d32d71	-6.599297
160	0xc05b919e	-3.4307628
161	0xbfb6dcaf	-1.4286097
162	0xbf74f8e2	-0.95692265
163	0xbfb582bd	-1.4180523
164	0xbf700e0f	-0.9377145
165	0xbf56ad50	-0.83858204
166	0xbfec6785	-1.8469092
167	0xc016870f	-2.3519933
168	0xc01e7eab	-2.4764812
169	0xc0113e7e	-2.2694392
170	0xc0034438	-2.0510387
171	0xc016b7df	-2.3549726
172	0xc001613d	-2.02156
173	0xc00c86ac	-2.1957197
174	0xbff23437	-1.8922185
175	0xbfb5461c	-1.4162021
176	0xbfebb637	-1.8414983
177	0xbfc051e2	-1.5024989
178	0xbfa3cb40	-1.2796402
179	0xbfbeebf9	-1.4915763
180	0xbf45a454	-0.7720387
181	0xbf4e7b8d	-0.80657274
182	0xbfa0dd8c	-1.2567611
183	0xbf88bd8f	-1.0682849
184	0xbfb4fbdc	-1.4139361
185	0xbfa2cf10	-1.271944
186	0xbfa903f3	-1.320433
187	0xbff6fe64	-1.9296384
188	0xbfb6e83d	-1.4289623
189	0xbfd89039	-1.6919013
190	0xbf936d41	-1.1517717
191	0xbfb402ef	-1.4063395
192	0xbf684ba2	-0.90740407
193	0xbf4fe893	-0.81214255
194	0xbe9bcb79	-0.30428675
195	0xbf08bcfc	-0.5341337
196	0xbf6ed6fe	-0.932968
197	0xbfb82a20	-1.4387856
198	0xbfc2e7c0	-1.5226974
199	0xbff2a934	-1.8957887
200	0xc011dbea	-2.2790475
201	0xc015965e	-2.3373027
202	0xc01f0131	-2.4844477
203	0xc01e068f	-2.4691503
204	0xc02257b9	-2.5366042
205	0xc026b3f5	-2.6047337
206	0xc0356635	-2.8343632
207	0xc02ed8e1	-2.7319872
208	0xc01c885f	-2.4458234
209	0xbff9aff1	-1.9506818
210	0xbfb74269	-1.4317142
211	0xbf6b737e	-0.919731
212	0xbf6d4b9b	-0.9269349
213	0xbfab5a7a	-1.3386986
214	0xbfc5ae91	-1.5443898
215	0xbfbdd8c7	-1.483178
216	0xbfb6e27e	-1.428787
217	0xbfe2af32	-1.7709715
218	0xc008d54f	-2.1380193
219	0xc023500e	-2.5517612
220	0xc023acb6	-2.5574164
221	0xc04267f7	-3.0375955
222	0xc06c0111	-3.687565
223	0xc0805702	-4.010621
224	0xc08a9903	-4.331178
225	0xc0998c29	-4.7983594
226	0xc0955bf1	-4.6674733
227	0xc09f519e	-4.978713
228	0xc0a3dd11	-5.1207356
229	0xc0925656	-4.573039
230	0xc08767ed	-4.2314363
231	0xc0945ade	-4.636092
232	0xc0a26ea3	-5.0760055
233	0xc0ae4fc9	-5.4472394
234	0xc0a939df	-5.2883143
235	0xc0a15117	-5.0411487
236	0xc0af0fc3	-5.470674
237	0xc0ba90f2	-5.8301935
238	0xc0ba4e3c	-5.82205
239	0xc0bcce86	-5.9002104
240	0xc05497ef	-3.3217733
241	0xbf38fd72	-0.72261727
242	0xbe81f962	-0.25385576
243	0xbfb41db1	-1.4071561
244	0xbf2392ab	-0.6389567
245	0xbedf78ae	-0.4364676
246	0xbfbee7a7	-1.4914445
247	0xbfd5256e	-1.6652048
248	0xc015f6a9	-2.34318
249	0xc0034b5a	-2.051474
250	0xbfe47e23	-1.7850994
251	0xc001b59a	-2.026709
252	0xbfcf9305	-1.6216742
253	0xbfd14195	-1.6348139
254	0xbfc44f3c	-1.533668
255	0xbf892ac4	-1.0716176

t3.speaker_emb f4 [1, 256]
0	0x00000000	0.0
1	0x3cb1d8bd	0.021709794
2	0x3e04ff7c	0.12988085
3	0x3d77a768	0.060462385
4	0x00000000	0.0
5	0x00000000	0.0
6	0x00000000	0.0
7	0x3db39d66	0.08770256
8	0x00000000	0.0
9	0x00000000	0.0
10	0x3e1e9815	0.15487702
11	0x3dbfef70	0.09371841
12	0x00000000	0.0
13	0x00000000	0.0
14	0x3cc74c7c	0.024328463
15	0x00000000	0.0
16	0x3deea2c7	0.11652141
17	0x3d9f5f81	0.07781888
18	0x3d02d1a8	0.031938225
19	0x3d2cf379	0.04222438
20	0x3dc6adca	0.097011164
21	0x3ba6f95b	0.0050956435
22	0x00000000	0.0
23	0x3d2cac9c	0.0421568
24	0x00000000	0.0
25	0x00000000	0.0
26	0x00000000	0.0
27	0x3b5f530e	0.0034076604
28	0x00000000	0.0
29	0x00000000	0.0
30	0x3b47bc0f	0.0030477082
31	0x3e471d16	0.19444689
32	0x00000000	0.0
33	0x3d488605	0.048955936
34	0x3d29f022	0.041488774
35	0x3e1b4b09	0.15165342
36	0x3c0a4fcd	0.008441878
37	0x3d4359b4	0.04769297
38	0x3c8e2a35	0.01735411
39	0x00000000	0.0
40	0x00000000	0.0
41	0x00000000	0.0
42	0x3c31a06e	0.010841472
43	0x3c828bd5	0.015935818
44	0x3d042409	0.03226093
45	0x3e3cd704	0.18441397
46	0x00000000	0.0
47	0x3d107885	0.035271186
48	0x3da1d3db	0.07901736
49	0x3dbd5a97	0.09245794
50	0x00000000	0.0
51	0x3ca7fea0	0.020507157
52	0x00000000	0.0
53	0x00000000	0.0
54	0x00000000	0.0
55	0x00000000	0.0
56	0x00000000	0.0
57	0x00000000	0.0
58	0x00000000	0.0
59	0x00000000	0.0
60	0x3dd241a0	0.10266423
61	0x00000000	0.0
62	0x3b1b6b78	0.002371518
63	0x00000000	0.0
64	0x3d4e48db	0.05036245
65	0x00000000	0.0
66	0x3e328d29	0.17436661
67	0x3db552a6	0.088536546
68	0x00000000	0.0
69	0x00000000	0.0
70	0x00000000	0.0
71	0x3ddeaa25	0.10872296
72	0x00000000	0.0
73	0x3d6382ab	0.055544537
74	0x3ba25ad9	0.0049546775
75	0x00000000	0.0
76	0x00000000	0.0
77	0x3c37b7c5	0.011213248
78	0x3d94f6d4	0.07273641
79	0x3ddad793	0.10685649
80	0x00000000	0.0
81	0x00000000	0.0
82	0x3dcc105b	0.09964057
83	0x3d21d4f5	0.039509732
84	0x00000000	0.0
85	0x00000000	0.0
86	0x00000000	0.0
87	0x3dc18168	0.094485104
88	0x00000000	0.0
89	0x3c9bdc4c	0.019025944
90	0x00000000	0.0
91	0x00000000	0.0
92	0x00000000	0.0
93	0x00000000	0.0
94	0x3ad9f046	0.0016627393
95	0x00000000	0.0
96	0x3d58a2a8	0.052889496
97	0x3d2af805	0.041740436
98	0x00000000	0.0
99	0x00000000	0.0
100	0x00000000	0.0
101	0x00000000	0.0
102	0x3e39d8c0	0.1814909
103	0x3db86575	0.090037264
104	0x3d853e55	0.065060295
105	0x3d870abc	0.06593844
106	0x3dd45df0	0.1036948
107	0x00000000	0.0
108	0x00000000	0.0
109	0x3ddea0c7	0.108705096
110	0x00000000	0.0
111	0x00000000	0.0
112	0x00000000	0.0
113	0x3dad24a1	0.08454252
114	0x00000000	0.0
115	0x00000000	0.0
116	0x3e4ba437	0.19886862
117	0x3bdd06ac	0.00674518
118	0x00000000	0.0
119	0x00000000	0.0
120	0x3cff7762	0.031184856
121	0x3c4054fe	0.011739014
122	0x3d3c9224	0.046037808
123	0x3a990534	0.0011674524
124	0x00000000	0.0
125	0x3db56c21	0.088585146
126	0x00000000	0.0
127	0x3d03aeef	0.03214925
128	0x00000000	0.0
129	0x00000000	0.0
130	0x00000000	0.0
131	0x00000000	0.0
132	0x3cfed02e	0.031105127
133	0x3d53530a	0.051592864
134	0x3d9c0ddb	0.0761983
135	0x3c931d13	0.0179582
136	0x3d5c3024	0.053756848
137	0x00000000	0.0
138	0x3d3def76	0.046370946
139	0x00000000	0.0
140	0x00000000	0.0
141	0x00000000	0.0
142	0x00000000	0.0
143	0x00000000	0.0
144	0x3e3f1a26	0.18662319
145	0x00000000	0.0
146	0x3e16794f	0.14694713
147	0x00000000	0.0
148	0x3e1e5859	0.1546339
149	0x3d5759ed	0.052575994
150	0x3db41897	0.08793753
151	0x3d8d3e2f	0.06896626
152	0x3ac9e599	0.0015403508
153	0x00000000	0.0
154	0x3da5dc85	0.080987014
155	0x3c682b8f	0.014170541
156	0x00000000	0.0
157	0x3c403399	0.011731052
158	0x3dc5fd47	0.096674494
159	0x3e37ba12	0.17942074
160	0x3d5a1116	0.05323895
161	0x00000000	0.0
162	0x3d8562f1	0.06513012
163	0x00000000	0.0
164	0x3d0aa1d5	0.03384574
165	0x3c366f9e	0.01113501
166	0x3dbfa658	0.093578994
167	0x3adc1ea0	0.0016793795
168	0x3db0c51c	0.08631346
169	0x3d1785a2	0.036992677
170	0x00000000	0.0
171	0x00000000	0.0
172	0x00000000	0.0
173	0x3dbae9bc	0.091266125
174	0x00000000	0.0
175	0x3b944c89	0.0045257253
176	0x3e0ad69c	0.1355843
177	0x3c186a83	0.009302738
178	0x3c6daee7	0.014507032
179	0x3c409fe8	0.011756875
180	0x3df5f511	0.12009633
181	0x3d502e9f	0.05082571
182	0x00000000	0.0
183	0x00000000	0.0
184	0x3ddab621	0.106792696
185	0x00000000	0.0
186	0x3e2f7ca9	0.17137398
187	0x3d602846	0.054725908
188	0x00000000	0.0
189	0x3bd0513c	0.00635734
190	0x3d6c5068	0.05769387
191	0x3dd1b485	0.102395095
192	0x00000000	0.0
193	0x3d94c606	0.072643325
194	0x00000000	0.0
195	0x3ba43635	0.005011345
196	0x3b6621ad	0.0035115287
197	0x3e792f9d	0.2433457
198	0x00000000	0.0
199	0x3d20fd13	0.03930385
200	0x00000000	0.0
201	0x3de6c0d9	0.112672515
202	0x3e0ef455	0.13960393
203	0x00000000	0.0
204	0x00000000	0.0
205	0x3db397ad	0.08769164
206	0x00000000	0.0
207	0x3e06e449	0.13173021
208	0x3d43be24	0.047788754
209	0x3cb76743	0.022388106
210	0x00000000	0.0
211	0x00000000	0.0
212	0x3daac9ab	0.08339246
213	0x3e16eefd	0.14739604
214	0x00000000	0.0
215	0x3c7373f4	0.014859188
216	0x00000000	0.0
217	0x3ca07815	0.01958851
218	0x3c6b76bb	0.014371569
219	0x00000000	0.0
220	0x3d813d34	0.06310502
221	0x00000000	0.0
222	0x00000000	0.0
223	0x00000000	0.0
224	0x3d9eedc9	0.07760198
225	0x3cbb7706	0.022883903
226	0x00000000	0.0
227	0x3d90918f	0.07059013
228	0x00000000	0.0
229	0x00000000	0.0
230	0x00000000	0.0
231	0x00000000	0.0
232	0x00000000	0.0
233	0x00000000	0.0
234	0x00000000	0.0
235	0x3de17352	0.11008324
236	0x390bcc2a	0.0001333213
237	0x3d85ceb7	0.06533568
238	0x3d65bf55	0.05609067
239	0x3da6a1a2	0.08136298
240	0x3e4a4843	0.19754128
241	0x3ccb6b41	0.024831416
242	0x00000000	0.0
243	0x3c88d9e1	0.016705455
244	0x00000000	0.0
245	0x3c72bc4b	0.0148154
246	0x3c294c6a	0.01033316
247	0x00000000	0.0
248	0x3dff8964	0.12477377
249	0x3d506e47	0.05088642
250	0x00000000	0.0
251	0x00000000	0.0
252	0x3d66ee04	0.056379333
253	0x00000000	0.0
254	0x00000000	0.0
255	0x00000000	0.0

gen.prompt_token i4 [1, 157]
0	0x000005b9	1465
1	0x000006a9	1705
2	0x000006a7	1703
3	0x00000d4e	3406
4	0x00000b4a	2890
5	0x000004c2	1218
6	0x000000cf	207
7	0x0000028d	653
8	0x000012fc	4860
9	0x000015e3	5603
10	0x00000ae2	2786
11	0x00000afa	2810
12	0x00000b4e	2894
13	0x000013dc	5084
14	0x00000b0e	2830
15	0x00000d56	3414
16	0x0000079f	1951
17	0x0000079f	1951
18	0x0000139d	5021
19	0x00000ac1	2753
20	0x000012aa	4778
21	0x0000053a	1338
22	0x000000d5	213
23	0x0000097a	2426
24	0x000001cd	461
25	0x00000a58	2648
26	0x00000a61	2657
27	0x00000b5d	2909
28	0x000013e8	5096
29	0x00000880	2176
30	0x00000812	2066
31	0x000002ea	746
32	0x0000006a	106
33	0x0000003c	60
34	0x00000027	39
35	0x000002f6	758
36	0x00001333	4915
37	0x0000114f	4431
38	0x00000717	1815
39	0x000011a0	4512
40	0x0000006e	110
41	0x00001025	4133
42	0x00001677	5751
43	0x00001171	4465
44	0x0000114c	4428
45	0x00000459	1113
46	0x00000bee	3054
47	0x0000069e	1694
48	0x00000788	1928
49	0x0000057e	1406
50	0x00000299	665
51	0x00000482	1154
52	0x00000ea0	3744
53	0x000007d3	2003
54	0x000007ba	1978
55	0x000004c7	1223
56	0x00000d52	3410
57	0x000013ae	5038
58	0x00000e02	3586
59	0x000013ea	5098
60	0x00001207	4615
61	0x00001435	5173
62	0x00000963	2403
63	0x0000084c	2124
64	0x00000482	1154
65	0x00000893	2195
66	0x000012f1	4849
67	0x00000153	339
68	0x0000108f	4239
69	0x00001989	6537
70	0x000005a8	1448
71	0x00000872	2162
72	0x0000068c	1676
73	0x0000077f	1919
74	0x00000832	2098
75	0x000010b3	4275
76	0x00001941	6465
77	0x00001107	4359
78	0x00000569	1385
79	0x00000d52	3410
80	0x000013d8	5080
81	0x000013e1	5089
82	0x00000088	136
83	0x0000151b	5403
84	0x00000af3	2803
85	0x000002d0	720
86	0x00000051	81
87	0x00000894	2196
88	0x000014e4	5348
89	0x000001a7	423
90	0x0000084c	2124
91	0x000000be	190
92	0x000006b8	1720
93	0x0000116f	4463
94	0x000012d5	4821
95	0x00000a15	2581
96	0x00001785	6021
97	0x00000bee	3054
98	0x00000368	872
99	0x0000000e	14
100	0x000005c5	1477
101	0x000016de	5854
102	0x00000e55	3669
103	0x000006ac	1708
104	0x0000079f	1951
105	0x000002df	735
106	0x00000893	2195
107	0x00000ea0	3744
108	0x000005c7	1479
109	0x00001842	6210
110	0x00001986	6534
111	0x00001989	6537
112	0x00001989	6537
113	0x0000023c	572
114	0x000006a7	1703
115	0x000000c5	197
116	0x000013ed	5101
117	0x00000222	546
118	0x0000114f	4431
119	0x00000840	2112
120	0x000003a8	936
121	0x000000f0	240
122	0x00000918	2328
123	0x00000dff	3583
124	0x000012da	4826
125	0x000012c5	4805
126	0x00001780	6016
127	0x000010db	4315
128	0x00000840	2112
129	0x00000fed	4077
130	0x00000b74	2932
131	0x000013db	5083
132	0x000012f9	4857
133	0x000005ee	1518
134	0x000017a0	6048
135	0x0000078f	1935
136	0x00000365	869
137	0x00000f47	3911
138	0x00001339	4921
139	0x000003bb	955
140	0x000017a2	6050
141	0x000006fc	1788
142	0x000000ab	171
143	0x000008dc	2268
144	0x0000102d	4141
145	0x00001628	5672
146	0x000013a7	5031
147	0x00001357	4951
148	0x0000084f	2127
149	0x00000479	1145
150	0x00000008	8
151	0x000005e3	1507
152	0x000005c8	1480
153	0x000005c7	1479
154	0x000006f6	1782
155	0x0000107a	4218
156	0x0000107a	4218

t3.cond_prompt_speech_tokens i4 [1, 150]
0	0x000005b9	1465
1	0x000006a9	1705
2	0x000006a7	1703
3	0x00000d4e	3406
4	0x00000b4a	2890
5	0x000004c2	1218
6	0x000000cf	207
7	0x0000028d	653
8	0x000012fc	4860
9	0x000015e3	5603
10	0x00000ae2	2786
11	0x00000afa	2810
12	0x00000b4e	2894
13	0x000013dc	5084
14	0x00000b0e	2830
15	0x00000d56	3414
16	0x0000079f	1951
17	0x0000079f	1951
18	0x0000139d	5021
19	0x00000ac1	2753
20	0x000012aa	4778
21	0x0000053a	1338
22	0x000000d5	213
23	0x0000097a	2426
24	0x000001cd	461
25	0x00000a58	2648
26	0x00000a61	2657
27	0x00000b5d	2909
28	0x000013e8	5096
29	0x00000880	2176
30	0x00000812	2066
31	0x00000011	17
32	0x0000006a	106
33	0x0000003c	60
34	0x00000027	39
35	0x000002f6	758
36	0x00001333	4915
37	0x0000114f	4431
38	0x00000717	1815
39	0x000011a0	4512
40	0x0000006e	110
41	0x00001025	4133
42	0x00001677	5751
43	0x00001171	4465
44	0x0000114c	4428
45	0x00000459	1113
46	0x00000bee	3054
47	0x0000069e	1694
48	0x00000788	1928
49	0x0000057e	1406
50	0x00000299	665
51	0x00000482	1154
52	0x00000ef1	3825
53	0x000007d3	2003
54	0x000007ba	1978
55	0x000004c7	1223
56	0x00000d52	3410
57	0x000013ae	5038
58	0x00000e02	3586
59	0x000013ea	5098
60	0x00001207	4615
61	0x00001435	5173
62	0x00000963	2403
63	0x0000084c	2124
64	0x00000482	1154
65	0x00000893	2195
66	0x000012f1	4849
67	0x00000153	339
68	0x0000108f	4239
69	0x00001989	6537
70	0x000005a8	1448
71	0x00000872	2162
72	0x0000068c	1676
73	0x0000077f	1919
74	0x00000832	2098
75	0x000010b3	4275
76	0x00001941	6465
77	0x00001107	4359
78	0x00000569	1385
79	0x00000d52	3410
80	0x000013d8	5080
81	0x000013e1	5089
82	0x00000913	2323
83	0x0000151b	5403
84	0x00000af3	2803
85	0x000002d0	720
86	0x00000051	81
87	0x00000b6d	2925
88	0x000017bd	6077
89	0x000001a7	423
90	0x0000084c	2124
91	0x000000be	190
92	0x000006b8	1720
93	0x0000116f	4463
94	0x000012d5	4821
95	0x00000cee	3310
96	0x00001785	6021
97	0x00000bee	3054
98	0x00000368	872
99	0x0000000e	14
100	0x000005c5	1477
101	0x000016df	5855
102	0x00000e55	3669
103	0x000006ac	1708
104	0x0000079f	1951
105	0x000002df	735
106	0x00000893	2195
107	0x00000ea0	3744
108	0x000005c7	1479
109	0x00001842	6210
110	0x00001986	6534
111	0x00001989	6537
112	0x00001989	6537
113	0x0000023c	572
114	0x000006a7	1703
115	0x000000c5	197
116	0x000013ed	5101
117	0x000004fb	1275
118	0x0000114f	4431
119	0x00000840	2112
120	0x000003a8	936
121	0x000000f0	240
122	0x00000918	2328
123	0x00000dff	3583
124	0x000012da	4826
125	0x000012c5	4805
126	0x00001780	6016
127	0x0000108a	4234
128	0x00000840	2112
129	0x00000fed	4077
130	0x00000b75	2933
131	0x000013db	5083
132	0x000012f9	4857
133	0x000005ee	1518
134	0x000017a0	6048
135	0x0000078f	1935
136	0x00000365	869
137	0x00000f47	3911
138	0x00001339	4921
139	0x000003bb	955
140	0x000017a2	6050
141	0x000006fc	1788
142	0x000000ab	171
143	0x000008dc	2268
144	0x0000102d	4141
145	0x00001628	5672
146	0x00001356	4950
147	0x00001357	4951
148	0x0000084f	2127
149	0x00000428	1064
